Assignment/1_Regression/regression-adam/weight_adam.npy (npy, 1432 bytes, 1 tensors)

array f8 [163, 1]
000000 38 29 01 c2 3c 8a 35 40 6a 4f 82 0b 4f 40 d0 3f
       21.539989590915155 0.25392509578636313
000010 d2 10 0b 65 bf ee db bf a9 66 49 2b cc 4b ee 3f
       -0.43644699923994523 0.9467526288455775
000020 47 96 94 39 8a 04 fc bf 61 99 20 e7 75 cc c9 bf
       -1.7511083840594368 -0.2015521410514323
000030 2a ac d0 34 ea a4 e9 3f 67 67 40 93 5f 8a e8 bf
       0.8013812095208597 -0.7668912769324664
000040 b3 1f 1b 54 08 16 f6 bf 10 fa 90 10 6e bd 04 40
       -1.38037903646362 2.5924950880282793
000050 13 c7 7a d6 c5 00 d2 bf 38 c2 30 ad 76 9d c4 3f
       -0.2812971682097764 0.1610554071098862
000060 46 01 f2 21 1a 03 95 bf 49 76 ae a1 76 75 a0 bf
       -0.020519645997866286 -0.03214617465640097
000070 a3 d3 b3 51 26 b7 8c bf ee 82 1c 03 e6 2f b4 bf
       -0.014021205299721567 -0.07885587287865878
000080 8f 21 39 62 89 72 a8 bf 5e 3a b3 01 b8 b5 c9 3f
       -0.047748845329411364 0.20085811694157746
000090 69 08 5d 99 f2 97 d5 3f bd 6c 06 97 fb 10 b5 3f
       0.33739914872069804 0.0822903865541091
0000a0 fe e1 9d 92 5a 93 9a bf b4 53 4b 42 14 16 b4 3f
       -0.025952735136771203 0.07846190088760246
0000b0 5c c6 7b 15 a9 69 c1 bf c6 41 b7 59 7d c4 c4 3f
       -0.13603700207709124 0.16224638825089083
0000c0 85 f9 5d 31 4d f0 9a bf 78 13 32 64 7c 4d c4 bf
       -0.02630730260670468 -0.15861468212474583
0000d0 75 f7 db 68 5e 22 b9 3f 54 bb ad fa 68 b5 d8 3f
       0.09818067607917931 0.38607239227615264
0000e0 4e cc 9f b1 e2 f4 c9 bf 75 7d 72 26 9d 6d d8 3f
       -0.20278581307465732 0.3816902995549392
0000f0 b0 08 f1 5e a5 5d d7 bf 7d ed de 8a 4c e1 d2 3f
       -0.3650906970180001 0.2950011593017832
000100 76 5f 15 b2 2a 88 d7 3f c8 b7 02 10 9f 6a df bf
       0.3676859606834947 -0.490882650027626
000110 cc 12 e7 54 8f 1c d1 3f d7 08 c4 67 f6 b9 c5 3f
       0.267368157303548 0.16973762575805182
000120 82 24 a7 9c d5 96 a7 3f 4f 4e 87 a0 d2 b6 ca 3f
       0.04607265031115394 0.20870430792148162
000130 91 b9 54 34 a9 58 d7 3f 53 bc 82 d4 7b ce d2 3f
       0.3647864352268693 0.2938527655887288
000140 bb 8a db b9 7f e4 f3 bf d4 5c 33 b5 88 6b cf bf
       -1.2432858715116442 -0.24546917770087495
000150 9d 57 02 48 04 7e d7 bf ee d8 5e 3e 74 40 b0 bf
       -0.3670664504255628 -0.06348349116055704
000160 91 1d 91 17 db b1 eb bf 1e e5 df df 06 04 e2 bf
       -0.8654609165468391 -0.562991559271868
000170 3f 5b 6b 45 a6 9c b3 bf 30 83 6b 3b cf 6b db 3f
       -0.07660903162773723 0.42845516970378394
000180 f9 45 e4 cb e3 46 8a 3f 70 17 78 8a 11 10 07 c0
       0.012830524120121633 -2.8828459566020044
000190 c9 60 51 0c 69 f6 f1 bf 65 08 29 ba f5 17 db bf
       -1.122658775440913 -0.4233373945209052
0001a0 ee 38 b3 80 40 d2 ea bf 44 53 38 57 a0 3a 0c c0
       -0.8381655229257186 -3.5286261381210426
0001b0 59 1b dc 5f 5e a8 c2 3f 28 b4 53 c6 ef 1a c6 3f
       0.14576320343641205 0.17269704040464373
0001c0 fb a0 e4 1a 73 bf f1 bf 50 c0 b7 fb 4f 1b 97 bf
       -1.1092406321059218 -0.02256512616980927
0001d0 b9 20 cc 24 03 88 0b 40 51 6e 64 96 5e 2e f2 3f
       3.4414122462077015 1.1363206743907492
0001e0 73 5f 00 2c 39 c3 e8 3f 3c 54 ff 9c 64 67 df 3f
       0.773830972614617 0.49068560916686343
0001f0 44 50 08 d1 70 20 0e 40 03 1a 9e e5 70 45 fd 3f
       3.7658401804601755 1.829453370040597
000200 51 7c 21 4d ea 36 b2 bf 08 ed 4d 49 3f ea d8 3f
       -0.07115044005466699 0.38929731520302413
000210 8e 95 8b 58 5f 82 d2 bf d5 20 78 37 f3 2d cf bf
       -0.28920730254170557 -0.24358978470286866
000220 2a f9 12 cd 81 51 ad bf 2a 36 e8 13 53 e4 e4 bf
       -0.057262474330388294 -0.6528716458139503
000230 3f 4d 08 1d 89 0b cd bf f6 3b 28 9c 3a 6a b4 bf
       -0.22691453855132157 -0.0797459250681952
000240 9e bd f9 ad 04 5e fa 3f 92 0a 07 07 2d d2 d8 3f
       1.6479536815566926 0.38782811819343366
000250 1a 5c 33 88 39 fd c8 3f b7 e3 fc ac 0b 1f f0 bf
       0.19522780561848735 -1.0075794942224385
000260 f7 57 4a 6c bd 7b f7 3f 3c 49 e0 93 11 d4 ba 3f
       1.467709944733995 0.10479841099030279
000270 cb 7c 0a 7d 87 b0 f5 bf c2 61 54 50 38 df f2 3f
       -1.355597961846615 1.1794970643878604
000280 00 43 cd b0 28 7f d0 3f d8 b4 0b 5d f6 a5 e8 3f
       0.257761166246425 0.7702590768145923
000290 7c a2 0e 9e 89 66 e7 bf ed 37 25 05 4f f6 a7 bf
       -0.7312667929700889 -0.04680106103715773
0002a0 9e 20 98 26 e8 d4 0d 40 d7 bf 8b 1c e2 a7 10 c0
       3.7289584174323656 -4.163948484449029
0002b0 bd bd e1 4d 25 24 d4 bf fc 47 c6 d8 3d b2 1f 40
       -0.3147061596455066 7.924064051725505
0002c0 27 2b 12 13 22 49 22 c0 f6 72 af 21 b7 67 ee 3f
       -9.142838092773287 0.9501605661313011
0002d0 db 5c ec 2a 8d 9e 2e 40 62 3e f0 65 da f0 b2 3f
       15.309670773842688 0.0739876269219564
0002e0 f2 94 d2 d5 ed 58 a6 bf 91 4b 27 59 a7 17 c2 bf
       -0.04364722476138096 -0.14134685376356207
0002f0 24 36 26 01 29 75 97 bf b0 8c fb bd c3 15 c4 bf
       -0.02290786809458302 -0.1569142034196367
000300 50 0a bc df 09 b9 ad 3f d8 1c b9 c3 8d 95 72 bf
       0.05805235725531033 -0.004537156837222521
000310 11 7f ac c5 2d d3 be bf d3 22 b1 72 71 26 cc bf
       -0.12040983272572371 -0.21992319202606456
000320 ec 8d 32 2d fc 0a d1 bf 0a aa 48 f8 bd ed b0 3f
       -0.2662954751378652 0.0661276560937624
000330 42 a7 4e 6d 48 d5 da 3f 94 89 4a 43 4b d8 e5 bf
       0.41926775621924517 -0.6826530756264213
000340 91 91 0c 8f 49 01 e5 bf 26 55 79 8c 6e b0 e5 3f
       -0.6564071458747539 0.6777870887405342
000350 29 77 4b 3f 5b 22 f4 bf 7c b1 8e 7e 59 e0 cb 3f
       -1.2583878014042489 0.21778410605964982
000360 12 0f 70 2f 7a ff e9 3f 19 c0 46 29 73 02 e0 bf
       0.8124361921804584 -0.5002990537814213
000370 04 e0 ac e3 ce b9 e5 3f 41 0f 68 37 a9 31 c5 bf
       0.6789316603453703 -0.16557803349871317
000380 03 f2 9b ed 0a 85 a4 bf 90 55 16 af 73 9b a3 bf
       -0.04007753515722714 -0.038295378802256086
000390 1e a5 dd aa cf c8 b8 3f c1 16 d5 82 bb 83 b9 bf
       0.09681413575676287 -0.09966632789754738
0003a0 6c aa 9b 5d b7 33 d2 3f fe 18 9d 02 17 b5 d2 3f
       0.2844065107480336 0.2923028493427323
0003b0 2a 5f cd 2d d3 e5 d4 3f 3f c1 93 d8 26 d7 d2 bf
       0.3265273997580943 -0.29438182020296105
0003c0 9c 3b 8b 4a 2c 9a cc 3f 2d c7 b5 f8 5e 10 cf bf
       0.22345498695218857 -0.24268710273786934
0003d0 af 0c 42 2b eb 07 a5 bf 9b 84 51 9c 15 d5 cf 3f
       -0.04107603934337455 0.24869032032714675
0003e0 00 7d fc 8c f4 d7 c0 bf 13 83 7e 16 00 6c c9 bf
       -0.13159043201537912 -0.19860840891217232
0003f0 2d 2b d3 66 ab cb b2 bf b1 e5 e8 ca cb fb 94 bf
       -0.07342025051472652 -0.02049177576029643
000400 4e 23 5c d4 81 ef d3 3f 34 25 2d db f8 74 b9 bf
       0.3114933561160357 -0.09944110251412469
000410 5d df 09 70 27 b0 c9 3f 92 25 e3 e6 86 42 c3 3f
       0.20068829508431466 0.15046774171632343
000420 ba 1b 65 f0 97 62 ba 3f 41 c5 9e 13 5a fe d4 bf
       0.10306691760079803 -0.32802440563235186
000430 4a e6 65 33 df 1f b8 3f ab b2 22 aa 35 43 bd 3f
       0.09423632626376235 0.11430678752612759
000440 72 b8 cc 50 65 ab c5 bf 52 7a be 26 aa 2e b0 bf
       -0.16929308362290701 -0.06321204610728984
000450 8c 87 3c 29 52 49 c6 3f 3c 2d 3a 88 75 4a c0 bf
       0.17411257756708343 -0.1272723117038853
000460 29 ac b7 cb e7 b2 b2 bf 73 62 3e 20 87 23 a3 3f
       -0.07304238055773794 0.037380430875775604
000470 48 bb da 86 fb 56 a8 3f 42 07 e2 91 7b f1 c1 bf
       0.04753862401172754 -0.14018196700276958
000480 32 ed f1 46 cb 7c 89 3f 0c 93 18 68 00 45 c8 bf
       0.012445057013101921 -0.18960576136409946
000490 27 8f b4 09 7f 82 c6 bf 1b 2f 79 21 60 4c d4 3f
       -0.1758574292554098 0.31716159123310356
0004a0 2c f1 33 56 3e 9a 9f bf 6a 92 bc ed bb a5 c0 bf
       -0.030861829768569368 -0.13005780323250643
0004b0 a2 c8 ca 41 e6 22 b7 3f e0 6b 3d 74 3f c1 bf 3f
       0.0903762732148459 0.12404247844590044
0004c0 53 b7 d4 08 73 78 b9 bf 96 3e 8a f6 15 cc b8 bf
       -0.0994941612777585 -0.09686410206836124
0004d0 34 99 47 65 ed 57 a7 bf 4e 20 51 3c b8 02 d1 3f
       -0.045592707265131344 0.2657909955055445
0004e0 42 3a 89 25 9c 43 be bf bc a3 ec db 5b a3 c2 bf
       -0.11821914593131402 -0.14561031568999094
0004f0 6a 18 b5 4b 8e 9f be 3f 34 d0 c0 de 75 13 d3 3f
       0.11962212894749916 0.2980627703975671
000500 54 53 c9 54 60 6e b2 bf 73 98 bd bb c2 ee d0 bf
       -0.07199670858365198 -0.2645727952389116
000510 04 fa 5a 70 61 ad d1 3f
       0.27620731327252224
